lstm_model_param_88.pth (torch, 91200 bytes, 11 tensors)

lstm1.weight_ih_l0 f4 [192, 25]
00000000: 8322 4a3d a996 0f3e 32e1 e33d ed17 c3bd
00000010: a443 1ec0 2047 753d a3fe f0bd 4729 22bd
00000020: 547a 16be b624 21bd aac3 c53d 7627 67bf
00000030: 806d b03e b6e9 7c3e a14a da3d 7f60 3ec0
00000040: b5ec 4b3f 6c0d 9b3e 137c bf3e 263d 973e
00000050: 35a9 92bd 6fd2 683d e53f 4d3d 263c 11bf
00000060: 2883 b5bf 5a06 a33e 7ddb 5f3e aee8 c03e
00000070: 1b7a 4c3e edc8 c5bf 8fd4 3cbf 405d 2cbf
00000080: 4af9 40bf 0ae5 99be 8698 96be 0867 7bbe
00000090: 04b5 2cbe 7148 0b3e 0df9 403d b2b8 973e
000000a0: 84bc 35be ffe1 9a3f 0763 f03b cd50 11bd
000000b0: 3009 91be f820 cebe 46b0 73bd 9040 afbd
000000c0: fa46 99be bd2a 8abe f822 9cbd 2a42 65be
000000d0: 941a 41be 4605 9fbe bfb6 cb3d 3679 f53c
000000e0: fb11 0b3d b6b6 9f3e 92a2 76be be3e 9f3b
000000f0: 9158 a5bd 9fc8 8e3e c9ab 51bf ff84 3abf
00000100: 6ec1 4dbf fa71 a5be 0b65 443f a67d 44bd
00000110: 8df2 4fbe 52f2 a3bd 7be9 09be 8d3a d73c
00000120: 0881 0b3e e500 b4be e66e 34bd a4bd 8d3e
00000130: cbe5 443e 100d 963e db56 813e 94d4 c03e
00000140: 36de 6a3f 7a75 0f3f f3c3 283f 8006 c33e
00000150: 3986 433f 8a8a 4e3f 5f6b 733f 9726 b13a
00000160: 1266 64be f7d3 4fbe 9945 593f b5d4 23bf
00000170: 85f4 2d3f 299a f23e f411 c93e 2fad fc3e
00000180: d9d8 3b3f 70c8 7b3f f0b5 5c3f 171e 47bd
00000190: b3c1 ddbe 8cad 08bf 9bd6 fbbe 9df4 aabe
000001a0: 10c6 90be 2ba4 353e 3c04 613e 2c29 e33e
000001b0: 5108 dcbe ba8c 2f3d b6f3 7b3d 8a4f f03e
000001c0: 845a 56bf 2175 3ebf f1de 43bf 780a febe
000001d0: a3cb b0be 96df 5fbe 9429 9dbd d251 30be
000001e0: 82a7 103d 6e9b 15be c3d4 9b3d d109 29be
000001f0: e786 00bf 7fdb eabd 87ee 17be 7abf 0fbe
00000200: c076 57be f40d 7ebd 7051 8ebe 2325 873c
00000210: 66db 5d3e 434f d8bd 5e23 6bbe 8477 76bd
00000220: ca42 0cbc b749 febe db4f 10bf 9e9e f3be
00000230: ffa8 a53c 5f38 afbc be8e 2abf 442d 09bf
00000240: a623 0dbf b46c 0f3e b761 acbe da48 8dbe
00000250: c285 c0be 006c bfbe 5fde 9c3d 2fe4 4c3e
00000260: 8624 b33d 639b af3d 7758 1bbf df35 cc3e
00000270: ee3e 293e ed7f 383e 9b1f b23d cd1d b43e
00000280: e658 7e3e 112e bbbd d81f 05bf 5f5b afbe
00000290: 3170 99be 9537 c4be 43af 2e3f 1b5a b23e
000002a0: 2509 563e 9ec6 c43d 4e08 e03e 94b2 1f3f
000002b0: ef19 cf3e 291b 54be 73e3 03be 4bb3 e8bc
000002c0: fe3f 03be 5ae1 393d e840 a63d ca06 853e
000002d0: ee6e b63e 9308 2c3d 4da2 393e a4b5 77bb
000002e0: 3afa f33e 6014 a03e e1b2 273e 9809 97be
000002f0: b24f 9ebe 8792 0ebe 728c b53d 593d cbbe
00000300: 5252 a63e 624e 7c3e e9d2 e63c 1456 8d3c
00000310: 73e3 9c3e f915 883e 3cd2 823e 9f2a 73be
00000320: c65c 67be f2e4 cbbc d1e4 5dbd 7620 71be
00000330: 7617 863e 2b64 223f 00d4 363f db84 163f
00000340: 09ef 553e 8417 1b3f ee6d 113f bda6 563f
00000350: 02d4 0abf 55c6 d0be 577b ebbe a80f 2e3f
00000360: 54e2 d8be a071 8f3e a2b4 ee3e 07b7 f43e
00000370: 3e09 153f 93d3 113f 4e6b 0a3f c6ae 173f
00000380: 4527 8f3e 6729 b23b f558 00be 5256 a7bc
00000390: d83f 85be a649 c3be b1f2 59be da63 43bc
000003a0: c789 3b3e eeed 4cbe 08f9 e4bd b8c5 f7bd
000003b0: a985 0e3f 9bd4 19bf 2670 39bf 27d5 45bf
000003c0: 3bf8 6cbe 135f bf3e 51dc d1be e55a cbbe
000003d0: d49c d5be 191f ac3d e6ae 673d 3ae8 323e
000003e0: d35d 6d3d 876e d8be fc6c 98be 48c0 bdbe
000003f0: b8d7 5bbe 5904 66be 4726 043f fa10 cc3e
0.04934932 0.14022316 0.11126937 -0.09526048 -2.4728785 0.059882283 -0.11767318 -0.039590146
-0.14695102 -0.03934165 0.096564606 -0.9029459 0.34458542 0.24698529 0.106587656 -2.9746397
0.7965806 0.30283678 0.3739935 0.2953884 -0.0716118 0.05684131 0.050109763 -0.56732404
-1.4180651 0.31840783 0.21861072 0.3767752 0.19968455 -1.5451943 -0.7376184 -0.6732979
-0.75380385 -0.30057555 -0.2941324 -0.24551022 -0.16865927 0.13601853 0.047112513 0.296331
-0.17747694 1.2100219 0.0073360237 -0.03547745 -0.28327322 -0.40259528 -0.05949428 -0.08557236
-0.29936963 -0.26985732 -0.07623857 -0.22388521 -0.18857795 -0.3105871 0.099469654 0.029965024
0.033952694 0.31194085 -0.24085453 0.0048597744 -0.08073533 0.27887437 -0.8190275 -0.72859186
-0.80373275 -0.3231352 0.7671668 -0.04797139 -0.2030737 -0.08005203 -0.13467972 0.026273036
0.1362344 -0.35156932 -0.044051073 0.27683747 0.19228284 0.2930684 0.25261578 0.37662184
0.91745317 0.5603863 0.65923995 0.38090897 0.7637668 0.80680144 0.9508571 0.0013515529
-0.22304562 -0.20295702 0.8487182 -0.6399644 0.6795123 0.4738324 0.3927151 0.4935088
0.7337776 0.9835272 0.86215115 -0.04861268 -0.43311843 -0.5338981 -0.49187168 -0.3338975
-0.2827611 0.17738406 0.21974272 0.4436735 -0.42975095 0.042858817 0.061511718 0.46935683
-0.83731866 -0.74397475 -0.76512057 -0.49617362 -0.34530362 -0.21862635 -0.07673946 -0.17218712
0.035315998 -0.14610073 0.076089405 -0.16507651 -0.50205845 -0.11467647 -0.14837085 -0.14037886
-0.21041393 -0.062025025 -0.27796507 0.0164972 0.21665725 -0.10561993 -0.2296271 -0.060172573
-0.008560846 -0.49665615 -0.5637185 -0.47581953 0.020222185 -0.021389185 -0.6662406 -0.53584695
-0.5513252 0.1400631 -0.336683 -0.27594644 -0.3760205 -0.37387085 0.076596014 0.2000892
0.08747201 0.085745595 -0.6068186 0.3988485 0.16527912 0.1801755 0.086974345 0.35178986
0.248386 -0.09139646 -0.52001715 -0.34249398 -0.29968408 -0.38323656 0.6823618 0.3483437
0.20901926 0.09608196 0.43756336 0.62381864 0.40449473 -0.20713486 -0.12879734 -0.028405806
-0.1281738 0.045380928 0.08117849 0.25981742 0.35631508 0.042000365 0.18128319 -0.0037797475
0.47651845 0.31265545 0.1637683 -0.29499507 -0.30920178 -0.13923083 0.088646784 -0.39695242
0.3248468 0.24639276 0.028176742 0.01725296 0.3064228 0.26579264 0.2555102 -0.23746727
-0.22593984 -0.024889443 -0.054173294 -0.23547539 0.26189774 0.63434094 0.71417236 0.5879647
0.20891966 0.60582757 0.56808364 0.8384817 -0.5422975 -0.40776315 -0.45992538 0.6799264
-0.42360175 0.28016376 0.46622187 0.4779589 0.5821723 0.5696346 0.54069984 0.5925106
0.27959648 0.0054370645 -0.12533934 -0.020426903 -0.2602527 -0.38142127 -0.21283986 -0.011925662
0.18314277 -0.20012638 -0.111803114 -0.12098259 0.556727 -0.60090035 -0.7243675 -0.7727837
-0.23141567 0.37377223 -0.409884 -0.39717785 -0.41721213 0.08404369 0.05656328 0.174714
0.057950806 -0.42271826 -0.29770648 -0.3706076 -0.21469009 -0.22462596 0.51620907 0.39856702

lstm1.weight_hh_l0 f4 [192, 48]
00000000: ad7d 8fbd a515 293f 9281 94be eb2d 483f
00000010: 88e4 27be 4010 a5be 75d2 0f3f 2960 47bf
00000020: b80b b93e 2f8b 22bf 1c80 6ebf 7dc0 c53e
00000030: 2a14 f9bd d247 1b3f 0596 023f 7962 203f
00000040: 68f6 0e3f 970a cd3e ccee 2ebf de28 31bf
00000050: 187e 283f c739 e03e e026 24bf 93fe 8e3e
00000060: 9fc6 863e a29f 59be 8ddd 983e c06f 8b3f
00000070: a3d7 5abf 1496 153e adee e03c 17b3 99bd
00000080: 2aae a93d a2c4 27bf 849f 133f d329 4d3f
00000090: d4e7 1f3e a082 08bf bd02 233f 2740 f3bc
000000a0: 5215 24bf 6cad fabe b6c2 babe c71e 26bf
000000b0: fc72 d6bd 52d3 bf3b aeef 123e cf60 8dbe
000000c0: 080f 153e e2d3 8d3e 3e9d 68bf aefb bf3f
000000d0: 4604 c0bf ae7c 0dbf 4391 9f3f 91b5 c8bf
000000e0: 7946 aa3f 1a7a 58bf c4a4 e9bf ee89 b83f
000000f0: f186 d1bf 8be2 d33f 9ab3 cd3f e7e6 c43f
00000100: 772b 2c3f ef69 cc3f f875 c2bf 7218 e2bf
00000110: 383c cb3f 524e 2bbd 16df 95bf 36cb a53f
00000120: 4eed d13f 78fb 95bf cb3e ac3f fb9d 993f
00000130: 7386 5dbf 2d0e 0a3e e5f2 ce3e 6d3d 1dbf
00000140: 7acc c43e af55 bebf 2647 3c39 7f9b c03f
00000150: a42e 1b3e a397 76bf 3385 ec3f ad48 85bf
00000160: 4647 7fbf b087 dabf 24c5 68be 213c d4bf
00000170: c5e6 84be e4b8 8e3f 7b79 a13e 3194 ff3e
00000180: 2143 18be 75d2 d0be af27 83be 5e46 a1be
00000190: 6477 23bf 561f 26bb 8548 b3bd c4c6 ff3e
000001a0: 7521 66bd a5ee 5b3e eae4 95bd 4121 1b3d
000001b0: 4f87 20be 98ed 8ebe a8d9 cb3e 8503 b9be
000001c0: cabf aabe c369 03be 8d96 413e 371a 983e
000001d0: c8ee 8ebe 712e f73d e785 a03d e1b9 c9be
000001e0: 5956 0dbe 8a06 053f a597 ccbe 5cd4 57bd
000001f0: 9517 513a 2d32 703e c756 91bb 6d49 8cbe
00000200: 4187 a6be e5d1 993d 23c6 8bbe df8f 44be
00000210: c289 473d 3dfd fd3d 3fec cebe 80e9 b7bd
00000220: d258 883e 486e 3f3e 5db1 883d db16 e53a
00000230: 56eb 733e c2a9 7b3e 598b cf39 dda4 1fbd
00000240: 7f91 22bf aa7b a73f 0353 c7bd 6a32 e4be
00000250: e5db 1a3f 62f7 013f c5de c9be 7e01 373e
00000260: 75c8 c8be a7ba f13e 7aa9 df3e e71d c6be
00000270: cb63 8d3e 3b63 0bbf c855 c5be 0656 77be
00000280: 2c59 9d3c f0c3 8dbe 5ee8 813e f108 0c3f
00000290: 9300 04bf 3ab0 523f f06f 1e3e cb1e 6dbe
000002a0: 776e 99be 3c6d 803e f2f2 9fbe 1982 bbbe
000002b0: 05e7 1b3f 2269 8e3f b964 4f3f 9a3b 7c3e
000002c0: 99c4 553f d8ae 8c3e c378 73be f972 84be
000002d0: be05 c3be 6ab1 393e 9d68 52be ceb5 51bc
000002e0: 73c0 fc3e de7e 50bd d069 19bf eed6 9d3e
000002f0: a0d2 13bf 5168 7bbd 8814 8b3e 875d 043f
00000300: 010f 9fbe 9f80 213e ca71 dc3d 54b2 6cbe
00000310: 30c7 a8bc 7fdb 5a3e 72df 1cbf c767 5b3e
00000320: 0bda 8abe 5464 903e 6548 b13e 00f3 c9be
00000330: 456e 253e 404a d5be c251 febc 9381 e6be
00000340: 5209 7fbe 3baf 1cbf efff b83d 56e9 e63e
00000350: 9721 3dbd 590e cc3e 1b69 9abe 3c84 13bd
00000360: bdfb acbe b661 143f a261 f2be 7878 0dbf
00000370: b5b5 783e bc1f 463e 3d11 f13e d56e 2fbd
00000380: e20a b53e 5768 41bd e72a 0bbf fbc5 3bbf
00000390: 8902 04bf 3bdd fe3e d3bd 33be c1a2 3f3e
000003a0: 6ff0 143e 6eb6 833e 0eba 8abe f183 bc3e
000003b0: 3d34 d4be 5a1f bcbe aa5c 03bd e609 b83e
000003c0: e7c3 b43e 0487 1cbe e9a4 c3bd 4b55 cbbb
000003d0: 260f 31bf f319 e9be b044 e6bd 1f30 e8bc
000003e0: 6e01 babe 378f 2ebf 701b df3d e2a1 3ebe
000003f0: fb53 803e dc90 30bd e8d6 523e a294 543e
-0.07006393 0.6604865 -0.29005104 0.78195065 -0.16395772 -0.3223896 0.56180507 -0.77881104
0.36141753 -0.6349363 -0.9316423 0.3862342 -0.12162049 0.60656464 0.5101016 0.6265026
0.55844736 0.40047142 -0.68333125 -0.69202983 0.65817404 0.4379408 -0.6412182 0.279286
0.2632341 -0.21252301 0.2985653 1.0893478 -0.85485286 0.14608032 0.02745756 -0.07504862
0.08285172 -0.6553441 0.57665277 0.80141944 0.15615779 -0.5332432 0.63676053 -0.029693676
-0.6409503 -0.48960435 -0.36476678 -0.6489071 -0.1047115 0.0058540488 0.14349243 -0.27612922
0.14556515 0.27700716 -0.9086493 1.4998682 -1.5001304 -0.5526837 1.2466205 -1.568041
1.3302757 -0.8456131 -1.8253407 1.4417093 -1.6369306 1.655351 1.6070435 1.5382966
0.6725382 1.5969828 -1.5192251 -1.766371 1.5877752 -0.04182274 -1.1708705 1.295264
1.6400545 -1.1717367 1.3456663 1.2001337 -0.8653328 0.1348197 0.4041969 -0.61421853
0.38437253 -1.4869899 0.00017955582 1.5047454 0.1515451 -0.9632513 1.8478149 -1.0412804
-0.9971813 -1.7072659 -0.22731453 -1.658085 -0.25957313 1.1150174 0.31537995 0.4991775
-0.14869358 -0.40785566 -0.25616214 -0.31498998 -0.6385405 -0.0025348268 -0.087540664 0.49956334
-0.05618425 0.21477754 -0.073190525 0.03787351 -0.15676616 -0.27915645 0.39814496 -0.36135498
-0.33349448 -0.12833314 0.18905087 0.297075 -0.2791655 0.12069405 0.0783804 -0.39399627
-0.1380247 0.519631 -0.39959446 -0.052692756 0.0007976231 0.2345664 -0.0044353935 -0.2739977
-0.32525066 0.07510737 -0.27299604 -0.19195507 0.04871536 0.12401817 -0.40414616 -0.089800835
0.26630265 0.18694413 0.06674454 0.0017478125 0.23820242 0.24576476 0.0003958594 -0.038975585
-0.6350326 1.3084614 -0.0973263 -0.44569713 0.6049178 0.507681 -0.39427772 0.17871663
-0.39215437 0.47212717 0.43683988 -0.3869469 0.27615198 -0.5444829 -0.38542008 -0.24153909
0.01920756 -0.2768855 0.25372595 0.54701144 -0.51563376 0.8230015 0.15472388 -0.23156278
-0.2996709 0.2508334 -0.3124004 -0.36622694 0.6089938 1.1125834 0.81013066 0.24632111
0.8350311 0.27477145 -0.23776536 -0.25868967 -0.38090318 0.18134084 -0.2054772 -0.012799693
0.49365577 -0.05090224 -0.5992708 0.3082804 -0.57743263 -0.06137878 0.27164102 0.5170521
-0.31066135 0.15771721 0.10763891 -0.23114902 -0.020602793 0.21372794 -0.6127845 0.21426307
-0.2711948 0.28201544 0.34625545 -0.39443207 0.16155346 -0.4165821 -0.031044845 -0.45020732
-0.24905899 -0.6120488 0.090331905 0.45099896 -0.046174612 0.39854696 -0.30158314 -0.03601478
-0.3378581 0.57961595 -0.47340113 -0.55261946 0.24288066 0.19348043 0.47083464 -0.042830307
0.35359865 -0.047218647 -0.5436234 -0.7334897 -0.5156637 0.4977816 -0.17552881 0.1871443
0.14544843 0.2572512 -0.27095073 0.36819413 -0.41446105 -0.3674267 -0.032070793 0.35945052
0.35305712 -0.1528588 -0.095529385 -0.006205236 -0.6916374 -0.4552761 -0.1124357 -0.028343258
-0.36329216 -0.6818728 0.10893905 -0.18616441 0.25064072 -0.0431069 0.20589793 0.20759824

lstm1.bias_ih_l0 f4 [192]
00000000: 2fbe 31be 48f7 2dbf c152 9a3d 0364 0b3f
00000010: 545f 8c3c 7547 8e3c 0dc5 823e 45df 133e
00000020: 6650 e33e 9673 873d 448c b73d 3b1e 4a3e
00000030: fc26 613e 2f77 9b3e c873 793e 011a 4a3c
00000040: df21 ab3c ddcc 403e cffb 123f 3c5b bc3d
00000050: 590c 03bd 870a e8bd a91f 643e 11cc 123f
00000060: 69ea 7fbe 5155 203f aa91 643e d873 d2bd
00000070: ac36 eb3d bd8d 0bbe c7c1 9cbe a08d 733d
00000080: 49aa 0abf c812 5abe 4e5b 2a3e 6ae0 1a3c
00000090: c066 2dbd 8716 cb3e 616b 94bd 4666 eb3c
000000a0: d12f fb3d 9996 1d3f f3e7 d1be b9ec f0bd
000000b0: 55b9 abbe 27ea 993e 185e e0bd 5f3f 8ebe
000000c0: ef58 c5be 46db 88be 97a3 b7bd 1895 e63d
000000d0: e97d a0bd 2bab b0bc 36ef fabc dfea 1d3e
000000e0: 6b6a 0d3d ebf0 a3bc a9a2 0b3e b5ac 763e
000000f0: a590 463d d472 f73d e364 483e 16c0 9a3e
00000100: fbe4 763e 0199 103e 9b80 5dbd cf46 733e
00000110: a518 743e 33be 1bbf f7a8 713e b420 b83d
00000120: d0e5 693e 0777 9c3d 0b83 203e cac5 d63d
00000130: b3eb 7fbe 09f3 34bf ecf9 15bf 6ab3 5b3d
00000140: 5c85 0ebf d5dd f43e 2ab1 88be eb83 bd3d
00000150: 5fd0 0e3f 5eb4 683d b393 583e 7159 bd3d
00000160: 84f4 ecbc aa2d 8b3d f99f 06bf 7857 aa3e
00000170: cc1d 33be 3d4f 84be daa9 903d 43b7 4abf
00000180: e208 8f3e 2e91 e5be 07a2 ba3d cbe4 a1be
00000190: dd37 143e aae7 3b3d 14ab 963c af92 103e
000001a0: d88c f5be 76e3 1cbe 7c84 933e 763d 7cbd
000001b0: 09ec 1d3e 8806 b6be f2fb b5be f833 00be
000001c0: 57cc cfbe dbe5 5fbe bbe7 ad3e 88a0 573d
000001d0: b1b2 78bd aba4 fabe a3b8 fa3d 5500 5bbd
000001e0: 9519 1abe eedc 103e d574 09be df91 5dbe
000001f0: bf4c 67bc e320 9bbe f510 b2be c74a bd3d
00000200: a76f b6be d46e 77bd 4676 e93d d788 bfbd
00000210: 526e 32bd cbe9 8fbd c64d eebd 8f2f fe3d
00000220: b33f b23d d086 0b3f 150f f93e c73e 963d
00000230: 4e3a f43e ad29 36be 7ab1 55be 79fd 8cbe
00000240: 11f5 7abe d67d e4be 287f a0bd f2e4 6c3e
00000250: 3aa8 bd3d 3caa 443e ac0c a03e 0bf9 ff3b
00000260: f60a d53d c5b2 d63d 1136 d63d 3f51 1d3e
00000270: 96bd 9c3e 984c 503d 8dd0 003d 49d6 c33d
00000280: 7269 c63e b831 b03d e91a fd3d 3509 943e
00000290: d0ff 3e3e 1f17 bebd d8da 093e b624 603e
000002a0: a9c9 b23e 54f0 e73d b246 193e 4295 903e
000002b0: cbcc 123e 43b8 50be 1820 5ebe 6364 b23d
000002c0: 97c5 f5be 5157 e33c 9303 76bc e6d5 033f
000002d0: 8275 a0be 0d34 023e 8f47 f7bc 29f9 853e
000002e0: 7d2d 033e 13f3 a2bd ade3 b4be 2ea3 453e
000002f0: 55f2 80be 5daa 963d 4442 183e cd57 4cbe
-0.17357706 -0.67955446 0.07535315 0.5444948 0.0171353 0.017368058 0.25540963 0.1444064
0.44397277 0.06613843 0.089623004 0.19738095 0.21987528 0.30364367 0.24360573 0.012335301
0.020890174 0.18828149 0.5741548 0.09197089 -0.031994198 -0.11330133 0.22277702 0.5734263
-0.24991764 0.6263018 0.22321191 -0.10276002 0.11485037 -0.13628288 -0.3061659 0.059461236
-0.54166085 -0.21296227 0.16636392 0.009452919 -0.04233432 0.39665624 -0.072470434 0.028735291
0.1226498 0.6155792 -0.40997276 -0.11763901 -0.33539835 0.30061457 -0.10955447 -0.27782723
-0.38544413 -0.26729792 -0.08966749 0.11258906 -0.078365155 -0.021565994 -0.030631643 0.15421627
0.034525316 -0.02001234 0.13636269 0.2408932 0.048477788 0.120824486 0.19569735 0.30224675
0.24110787 0.14120866 -0.054077726 0.2375748 0.23837526 -0.60837096 0.23599611 0.089906126
0.22841573 0.0763989 0.15674989 0.10486944 -0.24992256 -0.7068334 -0.58584476 0.0536379
-0.5567224 0.47825494 -0.26697665 0.09253677 0.557867 0.056812637 0.21150093 0.09245575
-0.028925188 0.06795819 -0.5258785 0.33269858 -0.17491835 -0.25841704 0.070636466 -0.79185885
0.27936465 -0.44837326 0.091129355 -0.31619868 0.14474435 0.04587523 0.018392123 0.14118455
-0.47959018 -0.15321144 0.28812015 -0.06158205 0.15422072 -0.35551858 -0.35543782 -0.12519825
-0.40585586 -0.21865027 0.3396586 0.05264333 -0.06071729 -0.48953757 0.12242248 -0.053467114
-0.15048821 0.14146778 -0.13423474 -0.21637677 -0.014117419 -0.30298528 -0.34778562 0.09242778
-0.3563206 -0.06040843 0.11399512 -0.09352272 -0.04356224 -0.07027014 -0.11635928 0.12411415
0.08703556 0.5450258 0.4864432 0.073361926 0.47700733 -0.17789336 -0.20868483 -0.27537134
-0.24507548 -0.44627255 -0.07836753 0.2313421 0.09260602 0.19205564 0.31259668 0.0078116707
0.10402481 0.10483316 0.10459531 0.15363024 0.30613393 0.050854295 0.03144889 0.09562356
0.38752323 0.08603233 0.12358648 0.28913274 0.18652272 -0.09281754 0.13462389 0.21889004
0.3491948 0.11325136 0.14968374 0.28238875 0.14335935 -0.2038279 -0.2169193 0.087105535
-0.48002312 0.027751597 -0.015015501 0.5149826 -0.3133965 0.12715168 -0.030185489 0.26166657
0.12810321 -0.07956519 -0.35329953 0.1930053 -0.25184885 0.07356713 0.14869028 -0.19955368

lstm1.bias_hh_l0 f4 [192]
00000000: c80c b3be ddbc 0dbf 0add d23d 40e3 023f
00000010: da25 aa3c c4de 053e f8c6 163e 9b48 2f3d
00000020: ac68 273f 8fe1 143e c768 383e b76a 343e
00000030: 18f3 953e e00e cb3e 2638 ae3e 6600 893d
00000040: 62ff 51ba 9466 133e 37e3 3c3f 1413 28be
00000050: 9606 57bd be3d 78be 4ca5 863e d89c 013f
00000060: 6ef4 6bbd 9b71 c23e 09cf 993e 47ed ddbd
00000070: 8ff7 853c 6257 43be 9fc8 54be f0a7 883d
00000080: 206f 0abf 4923 01be 1a0d cd3d e575 84bc
00000090: 4c0e f7bd 78d2 c53e 46a3 6a3d 7922 663d
000000a0: 07ee a6bb dbde fc3e b9f5 c2be d693 53be
000000b0: d410 4bbe 701d f33d 0415 40be 7d97 c2be
000000c0: 05cb 05bf 7a5c d8be 8671 96be 7a7a 8b3e
000000d0: 31cc c23c ea62 35be 7822 aa3d 6746 693e
000000e0: 5cdb 503e 867c d2bd 978d 473e 6cbb 7a3e
000000f0: e036 d63c e378 053d 47b3 fe3d b007 803e
00000100: 8d25 863c cc77 103e 70a0 323e 0a96 373e
00000110: d93b d93e 007f ecbe 15c6 4e3e 4ce0 973e
00000120: b5bb 043e dac8 75bd 6d98 7d3e f6ef c43d
00000130: 9a59 f3bd 6084 2cbf cbf1 2bbf 55d2 b03d
00000140: a536 4fbf f906 9d3e 0616 b3be bbf7 293e
00000150: 8115 423f 7807 933e 397d 9d3e f5ef 7a3d
00000160: 592b 27bd 5317 41bb 1934 37bf 5972 9b3e
00000170: 9285 9abe ce3e 31be ade8 aa3d 58e4 61bf
00000180: bcab 9e3e cb34 abbe 8512 693e 16bf e3be
00000190: 997e 9f3d 51bb a1bd 94cf 47bd 8eb4 5f3e
000001a0: 474c 2abf e554 2bbd 6e93 f03d 0272 e1ba
000001b0: a5c7 223d e0d5 27be ed73 d6be 2ab2 9cbc
000001c0: e986 09bf 7ff9 2ebe 4683 513e b8be db3d
000001d0: 0c2a 29bd 83b9 a2be e206 593b 22ef 9cbd
000001e0: cce5 e43d 81f3 a5bb bfc3 a9bd ba28 46be
000001f0: a644 7e3d 6e7e e0be beef c6be 975a 503e
00000200: 7b31 a8be d275 3b3e 19cb 6c3e 9e7d 66be
00000210: 09bb c9bd 9c01 103e 4aaa d0bd 9fd4 c53d
00000220: 2e7c a2bd 91d8 053f 5268 cc3e b4dc 093e
00000230: 14b9 7a3e 288b d3bd 5517 45be 455c dcbe
00000240: 5d25 a6be b4e8 d3be ffcc 363d ff8f 7c3c
00000250: 0bd6 463e fbec 0b3b 3219 9c3e 10ea 723d
00000260: 502c 003e da43 3bbc b9f8 0c3e 9e39 2a3e
00000270: c08e f53d a0a1 733e cc3a 8f3e 9eb8 97bc
00000280: 2b63 8d3e c507 803d c3c6 2f3d 5fe7 423e
00000290: ada8 82bd b251 44be e220 373e b565 1abd
000002a0: 9603 3c3e 2160 723e 02d3 5d3e 8188 503e
000002b0: 8ac5 a03c 2ae5 7fbe a972 00be e911 19be
000002c0: 2bba 06bf 04ee 233e b874 1ebd b4c6 f43e
000002d0: 2ed7 a4be 6d5f 863e c562 443e a9a3 043e
000002e0: 96e8 b03e 3850 1abb a776 b7be 3bf9 22bd
000002f0: cf3c 48be 9cda 0d3e da5b 333d 74f8 8bbd
-0.3497069 -0.5536631 0.10296066 0.51128006 0.020770002 0.1307326 0.14724338 0.04279385
0.6539409 0.14539169 0.1800872 0.17618833 0.29287028 0.39659786 0.34027213 0.06689529
-0.0008010772 0.14394599 0.737842 -0.16413528 -0.052496515 -0.24242303 0.26297987 0.5062995
-0.057606153 0.379773 0.30040768 -0.10836273 0.016353397 -0.19076303 -0.20779656 0.066726565
-0.54075813 -0.12611116 0.100122645 -0.016169498 -0.12063274 0.38637137 0.057284616 0.05618522
-0.005094293 0.49388775 -0.38078097 -0.20661864 -0.19830638 0.11870849 -0.18758017 -0.380062
-0.5226291 -0.42258054 -0.29383487 0.2724188 0.023779007 -0.17713514 0.08307356 0.22780763
0.20396179 -0.10277657 0.19487606 0.24485558 0.026149213 0.03258599 0.12436538 0.25005865
0.016375327 0.14108199 0.17444015 0.17928329 0.42428473 -0.46190643 0.2019275 0.29663312
0.1296223 -0.060006 0.24765177 0.096160814 -0.118823245 -0.6738949 -0.6716582 0.08633868
-0.80942756 0.30669382 -0.3497774 0.16598408 0.7581406 0.28716636 0.307596 0.061263997
-0.040812824 -0.0029463365 -0.7156387 0.30360678 -0.3018003 -0.17309114 0.08345161 -0.8823905
0.30990398 -0.33438715 0.22760971 -0.44481725 0.077878185 -0.07897056 -0.048781946 0.2184622
-0.6652264 -0.04182901 0.1174687 -0.0017200115 0.039741177 -0.1639018 -0.4188532 -0.019127924
-0.5372148 -0.17087363 0.20460233 0.10729736 -0.041299865 -0.3178216 0.0033115675 -0.076627985
0.11176643 -0.0050644283 -0.08289289 -0.19351473 0.062077187 -0.43846458 -0.38854784 0.20347057
-0.3285025 0.18306664 0.2312435 -0.22508857 -0.09850127 0.14063114 -0.1018873 0.09659695
-0.07933842 0.5228358 0.3992334 0.13463098 0.24484664 -0.10329276 -0.19247182 -0.43039146
-0.3245038 -0.41388476 0.044629093 0.015415191 0.19417588 0.0021350968 0.30487972 0.05930525
0.12516904 -0.011429751 0.13766755 0.16623542 0.11990118 0.23792124 0.27974546 -0.01852065
0.27614722 0.06251482 0.042914163 0.19033574 -0.063798286 -0.1917179 0.17883638 -0.03769465
0.18360743 0.23669483 0.21662524 0.20364572 0.019625444 -0.24989763 -0.1254374 -0.14948238
-0.5262782 0.16008765 -0.03868553 0.47807848 -0.3219542 0.2624468 0.19178303 0.12953056
0.3455245 -0.002354635 -0.35832712 -0.039788466 -0.19554447 0.13852924 0.04378877 -0.06834498

lstm2.weight_ih_l0 f4 [96, 48]
00000000: faa0 8ebe f4a1 5c3e 2f63 68bf bc10 0040
00000010: 00a2 b5bf b7f8 0ebf 075d 363e e78e b3bf
00000020: 2877 1040 4f9b 78bf 35eb d8bf cb73 723f
00000030: 81a4 b7bf 2aeb d83f 2ecc b83f 2135 9a3f
00000040: e986 3c40 6145 913f 225c dbbf ebda 84bf
00000050: e879 c83f a6c6 893e 8833 cabe 46a6 363f
00000060: 1d50 123f 23c4 10bf 3fb4 ec3e 27cd 833e
00000070: b0d4 24bf d9d5 c63e 85e9 043f a46b cfbe
00000080: 6236 a63e 6747 a1bf fe5f 9239 00ca 413e
00000090: a8a6 2e3f 4ce5 12bf d4aa be3f 4346 43bf
000000a0: 7db4 52bf 8569 04c0 017a f1be 1f1b 91bf
000000b0: a9ad 27bf e2df a23f 137c fa3e f048 db3e
000000c0: 0415 50bf a14a efbd 1e5e 46bf 8634 213d
000000d0: 9c3c afbe da85 cebf 288b d73e aa01 0dbe
000000e0: 726d 343e 16bc afbf 06ba b3be ffdf 0c3f
000000f0: 22ff 35bf 039d c13e ea73 b73e c0c8 ec3e
00000100: cee6 53be 676c 043f 55fa 2cbe 5e3a 11bf
00000110: 0d28 833e 76c5 323f f34b d7be 4733 633f
00000120: f567 c33d 47a7 61bf 07e4 5b3f a162 e53e
00000130: d905 58bf 841d ee3e 9a03 193e 22bb 63bf
00000140: c34f f3be 6cfb 36bf cf29 70bf 6093 013f
00000150: a079 5b3f 265b 2ebf f090 b43d 0530 28bf
00000160: f117 74bf 0a12 223c c5b9 11bf d933 13bf
00000170: 075b 193f 4cda ff3e f74a 91bf ffff 513f
00000180: bf51 b8be 8a83 04bf 5801 d6be ffc3 e83f
00000190: 89af 8ebf e89b 8ebe c940 3d3e a8c0 a4bf
000001a0: 51ea df3f b18d 1bbf d7ae ccbf ddae 5d3f
000001b0: 0b3b 3ebf ee53 ad3f a420 b83f 2fef 8f3f
000001c0: 754a 2340 074e 7d3f 0987 d3bf f013 5ebf
000001d0: 7cf2 9e3f f98f 373f 5668 52be 756c 8c3e
000001e0: 4e97 0e3f 3bb9 12bf d503 103f 5614 c83d
000001f0: 026d cbbe 56d3 2a3f e5c5 333f 01dd 11be
00000200: c49c 563f cd1b 24bf c19e 87bf 0298 883d
00000210: a97d 7d3e b2a1 14bf c697 af3f f282 e5be
00000220: aa43 1bbf 9f9a ecbf d862 f7be 8461 91bf
00000230: 17d3 e5bf 3cbd 583f 62c1 2340 c376 063f
00000240: 75aa cabe 27b1 c43e ade8 53bf 17f0 d83f
00000250: 7c29 c5bf d92a e0be 2ebe f53e da85 b7bf
00000260: 9711 0240 1c55 5dbf 3d44 b1bf 2168 4b3f
00000270: dec8 96bf 46fc b83f d966 853f 3bae a93f
00000280: 88d8 4440 1567 7a3f 6424 ccbf 4c21 97bf
00000290: 1968 893f 347a 053f 66b0 38bf c196 073f
000002a0: 227a 103f 5382 2dbf 76a2 103f 259a ed3e
000002b0: 93a2 35bf 3905 d03e a058 f23e bd66 91be
000002c0: 4d53 5dbd a172 54bf 9f57 803c 40d4 4e3e
000002d0: 175a a63e 43eb 36bf b24f 803f 94e5 73bf
000002e0: c8fb 2fbf c8fc bdbf 44af 05bf eaf8 9cbf
000002f0: eeda 36bf 1570 6a3f 17a3 a33e 3aca d03e
00000300: 7e44 6cbe aaf7 553e 8230 3bbf f223 b93f
00000310: c058 b0bf 2f01 02bf 292e 843e fa65 afbf
00000320: 3ea2 0f40 6507 13bf 8cdd c5bf c7b2 113f
00000330: 2391 8dbf 9869 853f bb0b 8f3f 9ae9 803f
00000340: a29e 4740 5e14 8b3f 704e c9bf 98e8 68bf
00000350: 482f a13f fdee e93e f305 e8be 738c 293f
00000360: 3fd0 e93e 4bc3 ddbe 8dd3 1c3f d984 033f
00000370: 6dbc bcbe 0181 2e3f 2cd9 103f 8824 a7be
00000380: b995 803e d6db 6abf dd00 02be e8ed 9d3e
00000390: 49c6 853d d426 d4be cc9d 9a3f fca0 3ebf
000003a0: 1661 17bf b198 efbf cfdb f2be 4f9c 84bf
000003b0: 8954 23bf 11fd 963f e926 663f cf5c 153f
000003c0: 9141 65bf dcba fe3d 15db 65be 006a a83f
000003d0: cb1e 38bf f274 fdbe 704f 7a3e d69a 82bf
000003e0: 31ed 9d3f 2e2b e8be cbf8 7ebf 6e63 823f
000003f0: cfbc 46bf 9b59 843f bfa1 753f 186a a53f
-0.2785719 0.21546155 -0.9077634 2.0010214 -1.4190063 -0.5584826 0.17808925 -1.4027985
2.2572727 -0.9711198 -1.694678 0.94707936 -1.4347078 1.6946766 1.4437311 1.2047464
2.9457343 1.1349298 -1.7137492 -1.0379308 1.5662203 0.2690937 -0.3949244 0.71347463
0.57153493 -0.5654928 0.46231267 0.25742456 -0.64387035 0.38835028 0.5191882 -0.4051181
0.32463366 -1.2599915 0.0002791881 0.18924713 0.6822305 -0.5738113 1.4895883 -0.76279086
-0.82306653 -2.0689404 -0.47163394 -1.1336402 -0.6549936 1.2724574 0.48922786 0.42829084
-0.8128207 -0.11684156 -0.7748736 0.03935673 -0.3422593 -1.6134598 0.42098355 -0.13770166
0.17619875 -1.3729274 -0.35102862 0.5502929 -0.71092427 0.37815103 0.35830623 0.4624691
-0.20693514 0.5172791 -0.16892369 -0.56729686 0.25616494 0.6983255 -0.42050132 0.8875012
0.095413126 -0.8814587 0.8589482 0.4480181 -0.8438392 0.46506894 0.1494278 -0.88957417
-0.4752179 -0.7147739 -0.93813795 0.506155 0.8573246 -0.6810783 0.08816707 -0.6569827
-0.9534903 0.009891996 -0.56924087 -0.5750099 0.5990452 0.49971235 -1.1351002 0.82031244
-0.35999867 -0.5176321 -0.417979 1.8184813 -1.1147319 -0.27853322 0.18481745 -1.2871294
1.7493383 -0.6076308 -1.5990857 0.86594945 -0.7430884 1.3541238 1.4384961 1.1244868
2.5514195 0.98947185 -1.6525584 -0.8674917 1.241775 0.7170406 -0.20547614 0.27426496
0.5569962 -0.5731389 0.5625585 0.09769504 -0.39731604 0.66728723 0.7022384 -0.14244463
0.83832955 -0.6410492 -1.0595323 0.06669618 0.24754967 -0.5805923 1.3718193 -0.44826466
-0.6065012 -1.8484687 -0.483176 -1.1357884 -1.7955045 0.8466375 2.5586782 0.52524966
-0.39583173 0.38416407 -0.8277691 1.694827 -1.5403285 -0.4378269 0.47996658 -1.4337723
2.0323236 -0.8645799 -1.384895 0.79455763 -1.178005 1.4451988 1.0422012 1.3256296
3.075716 0.9781354 -1.5948606 -1.1807036 1.0734893 0.5213959 -0.7214416 0.5296441
0.5643636 -0.67776984 0.56497896 0.46406665 -0.70951194 0.40628985 0.4733324 -0.28398696
-0.05403452 -0.8298741 0.015666781 0.20198154 0.32490608 -0.7145273 1.0024321 -0.95272183
-0.6874356 -1.4842768 -0.5222056 -1.2263463 -0.7142781 0.91577274 0.31960365 0.40779287
-0.23073003 0.20895258 -0.7312089 1.4464095 -1.3777084 -0.50783056 0.25816467 -1.3702996
2.2442775 -0.5743316 -1.5458236 0.5691342 -1.1059917 1.042285 1.1175455 1.007129
3.1190572 1.086559 -1.5727062 -0.9097991 1.2592554 0.45690146 -0.4531704 0.66229934
0.45666692 -0.4331306 0.612603 0.51374584 -0.36862507 0.68165594 0.5658138 -0.3264506
0.2511423 -0.91741693 -0.12695642 0.3084557 0.065319605 -0.41435874 1.2079406 -0.7446439
-0.59132516 -1.8718473 -0.47433326 -1.0360202 -0.63800865 1.179598 0.8990312 0.5834474
-0.8955317 0.12437984 -0.22446854 1.3157349 -0.71921986 -0.49503285 0.24444366 -1.0203502
1.233801 -0.45345443 -0.9959838 1.0186594 -0.7763185 1.0339845 0.9594993 1.2923002

lstm2.weight_hh_l0 f4 [96, 24]
00000000: 07e1 683d 3b74 b03d a9fd 24bd d8ad d0bd
00000010: ef94 013d 3879 223e e011 a93e 0d4f 5abe
00000020: 166f 713e 18e2 c1be 7c10 9d3d 301a f93d
00000030: c2f2 243f 0894 69be 76a3 013c 9f4e 43bf
00000040: 4519 3c3b a2dd b03e ef3f acbe ee75 683e
00000050: cbfe 0a3d 8fd4 0a3c e359 11be 4b35 953e
00000060: 44c7 d0be 5642 de3e f5c8 c0be 25d2 03bf
00000070: 072a 053e a3ef e93e da82 683f cd69 04bf
00000080: 31b2 5b3e 4786 0cbf 3d18 2f3f be4e 27bf
00000090: 0ba7 74bf 4829 16bf 9bc1 25be 6ac1 cdbe
000000a0: 0253 a33c 66ed 3fbf 8e0c 73bf 135a 073e
000000b0: 22ee 753e 1a75 5d3e 77ea 973d 8c85 7a3f
000000c0: 9b36 cf3d 0339 6c3e d332 3ebd 5489 813e
000000d0: 6969 61be 69f4 59be 397d 933f 2002 953e
000000e0: 9fdb a23e af17 08bf 4b70 8a3e dadd e9be
000000f0: c17e 0f3f 3400 d1bd 98b8 283e 7078 19bf
00000100: ad09 32be 7e13 223d 5f93 6fbf ebb0 48bc
00000110: 5743 bebe 484d ec3e 0544 62be ff06 373f
00000120: 6f2f 7d3d 9d81 8c3e aa13 e3bd bb71 dbbb
00000130: eb25 333e aa31 363e 6021 bd3e f424 6cbe
00000140: 4cde 363e 0f9f 27bf ea6e 913e 04aa 7dbd
00000150: 591e df3e ca72 a4bd c0f8 f3bd c62a d7be
00000160: 56c7 42be f7df a13e 622a 35bf 7c08 9c3e
00000170: 126b b8bd c659 c23e 1250 0ebe 09bd 933e
00000180: 67ec 163e 5276 8fbc d7bd fd3d b0d0 a3bd
00000190: a67c 8e3d 5e24 843e c62f 433f d840 003e
000001a0: d909 e43e 6667 1dbf 9de7 173d 3c59 21be
000001b0: 6b2d e73d 5416 8d3d 719b 803e ae70 1bbf
000001c0: e566 b6be e9a2 9f3e 5e7b 18bf 9604 623e
000001d0: d2ae c2bb fe4c 6b3e aae4 66be 9b0b fa3e
000001e0: ed06 96be d26c bc3e 16d2 fabd dcd5 22bd
000001f0: 287f 383e 1805 2bbe 652c 9e3e 0709 dfbe
00000200: 924e a53e 92a8 21bf b4b0 be3e 8631 fdbe
00000210: 2d9d 113f 8c3a 9abe d25e 74be 8404 3ebe
00000220: 8101 cf3b 8db9 0a3e 1f44 debe ec8c 083e
00000230: d0a4 0cbe c31e cd3e 1ecc 543d 9ae4 b43e
00000240: c796 a2be b239 14be 970f 08bf 8c8b 40be
00000250: e093 563e 20c9 903e 41ad 003f ac7a 05bf
00000260: f085 7d3f f2ad aabd 1b4f d33e 178c d03e
00000270: 70c0 8d3e 0e95 14bf 7c2f 243d e7d7 d5bd
00000280: 5d5c 80be f940 c83e 11fa d6be 37f7 f23e
00000290: 41e0 98be 8b91 9cbd 20ed 4d3e 0934 353f
000002a0: 9a02 d53e 2e93 ca3d af8f 583e b3bd ce3e
000002b0: b419 87be ec7c 76be b8aa 743f 5b11 aa3e
000002c0: 46ac bc3d 7583 0dbf 4c5f 363e 04f7 c7be
000002d0: 5148 033f a6de 073e edce 9a3e 4dde c2be
000002e0: 3bdb 15bf 886b a43e 5669 74bf b199 f3bd
000002f0: a427 08bf 8bc5 e33e 6b87 39bf 7223 7d3e
00000300: ca3e c33f fcc3 063f d878 963f 1546 f83f
00000310: f42f ecbf 4d2c bfbf 6a53 343f 84fd 803f
00000320: b66d 31be 4ae9 91be 1a56 71bf 2e16 53bf
00000330: 09c5 d3bc 9840 a33f 49c0 f33f fe70 48bf
00000340: 13e6 bcbf ad58 60bf 9cfa 2cbf 289e 33bf
00000350: 8a23 f4bf 6129 4f3f 9bcf febf b941 0a3e
00000360: 1cf8 a9bf 72b7 d0be 2d7e 81bf a64b 86bf
00000370: 6a1f 973f 2e48 b53f 47fc 063e 2b08 94bf
00000380: c6e6 0d3f cd32 743f 296e 913f 9cee 853f
00000390: ef0e 813f 0763 4cbf 7e5e 94bf 56ae ca3e
000003a0: 893b 683f 9671 5a3f 926d ad3e 589d 8c3f
000003b0: b0ff 9a3f 692a fbbe bb64 953f cbb0 cf3e
000003c0: dce0 33be ce01 c4bc 6cf3 cf3d 408b 95be
000003d0: 975f 92bd f021 043e 3dd7 553f f798 5cbe
000003e0: de10 103d fc0c 34bf 5c23 7b3e c757 a7be
000003f0: a856 393f fc84 30be c60e a83c be20 9fbe
0.056855228 0.08615919 -0.04028097 -0.10189408 0.031636175 0.15866554 0.3302145 -0.21319218
0.23577532 -0.37867808 0.0766916 0.12163198 0.6443292 -0.22810376 0.007912507 -0.7629184
0.0028701585 0.34544092 -0.33642527 0.22701237 0.033934396 0.0084735295 -0.14194445 0.29142222
-0.40777028 0.43409985 -0.37653318 -0.5149253 0.13004313 0.4569064 0.90824664 -0.5172394
0.21454693 -0.5489239 0.6839636 -0.65354526 -0.9556739 -0.5865674 -0.16187136 -0.40186626
0.019937042 -0.74971616 -0.9494103 0.13217954 0.24016622 0.21626702 0.074177675 0.97860026
0.10117837 0.23068623 -0.04643519 0.25300086 -0.22012867 -0.21284641 1.152259 0.29103184
0.31808183 -0.5316114 0.27038798 -0.45677072 0.56052786 -0.10205117 0.16476667 -0.599494
-0.17386504 0.03956937 -0.93584245 -0.012249212 -0.3716075 0.4615271 -0.2209626 0.7149505
0.061812814 0.27442637 -0.11087735 -0.0066969073 0.17494933 0.17792383 0.36939526 -0.23060971
0.17858237 -0.6547708 0.28404933 -0.061929718 0.4357784 -0.08029707 -0.1191268 -0.4202482
-0.19021353 0.31616184 -0.70767796 0.30475223 -0.09004797 0.37959117 -0.13897732 0.2885516
0.14738618 -0.017512474 0.12389725 -0.07998788 0.069573686 0.25808996 0.7624477 0.12524736
0.44538763 -0.614859 0.037086118 -0.15756696 0.1128796 0.068890244 0.25118592 -0.6071881
-0.35625377 0.31178978 -0.59563243 0.22072062 -0.0059412504 0.22978589 -0.22548166 0.4883698
-0.2930216 0.36801773 -0.12247102 -0.039754733 0.18017256 -0.16701162 0.30893245 -0.43561575
0.32286507 -0.6314784 0.3724419 -0.49451846 0.56880456 -0.30122793 -0.23864296 -0.1855641
0.006317318 0.13547345 -0.43411347 0.13335007 -0.13734746 0.40062532 0.051952474 0.3533066
-0.3175566 -0.14475134 -0.5314879 -0.18803233 0.20954847 0.28278446 0.50264364 -0.5214031
0.990325 -0.08333959 0.4127129 0.4073188 0.2768588 -0.5803994 0.040084347 -0.10441571
-0.25070468 0.3911207 -0.4198766 0.47454235 -0.29858592 -0.076449476 0.20109987 0.70782524
0.41603547 0.098913535 0.21148561 0.40379104 -0.26386797 -0.24071091 0.95572996 0.33216366
0.09212546 -0.5527871 0.1780979 -0.39055645 0.5128222 0.13268527 0.30235997 -0.38060227
-0.58537644 0.3211329 -0.9547323 -0.11894549 -0.53185487 0.4448665 -0.72472256 0.24720553
1.5253537 0.526428 1.1755629 1.9396387 -1.8452134 -1.4935395 0.7043978 1.0077367
-0.17327008 -0.28498298 -0.94272006 -0.8245572 -0.02585079 1.2754087 1.9043056 -0.7829741
-1.4757713 -0.8763531 -0.675699 -0.701632 -1.9073346 0.80922514 -1.9907106 0.13501634
-1.3278842 -0.40764958 -1.0116631 -1.0491836 1.1806462 1.4162652 0.13182174 -1.1564993
0.5543026 0.95390016 1.1361743 1.0463443 1.0082682 -0.79838604 -1.1591337 0.39586133
0.90715843 0.8532957 0.33872658 1.0985518 1.210928 -0.49055794 1.1671365 0.4056457
-0.17566246 -0.023926642 0.10153851 -0.29207802 -0.071471386 0.12903571 0.8353155 -0.21542726
0.035172336 -0.7033231 0.24525207 -0.32684156 0.7239785 -0.1723823 0.020514857 -0.31079668

lstm2.bias_ih_l0 f4 [96]
00000000: 905e 25bf fecc 69bf 3eb6 f9be 1c25 1abf
00000010: 615a 10bf ce13 46bf 2db4 3fbf 9bcf 17bf
00000020: c5f1 d2be 66ce 0ebf f372 f4be 9af4 5fbf
00000030: 8a4c 45bf 1cd7 f0be 766c fdbe 61d3 94bf
00000040: 6485 39bf 6cfc 2abf 699c 49bf f0c8 1fbf
00000050: a037 e7be 2938 6abf ba6d b6be 1f05 f5be
00000060: 2bac b6be 5131 283e 9726 503e f471 af3d
00000070: d3c0 22bd 8e72 443d a776 f03d 5305 503e
00000080: 3dbc e33d c4c6 4f3e da1e c0be b572 df3e
00000090: 1f58 92be 999e 463e 7cd2 563d a615 373e
000000a0: 6f5f a9bd c380 15bf 29dc bbbb 5931 953c
000000b0: 42d4 8abc 2b9a 073e 0261 43bd ddff ba3e
000000c0: 8109 443e f0f4 ddbd 17a1 4d3e 2104 d13d
000000d0: 073b 83bd c0c0 303d cbf5 abbe 65cb a83e
000000e0: c375 9ebe 330d 67be 8a09 7c3d 43b0 debd
000000f0: 0f92 803e 013c 6b3e 3783 383e f2e4 543b
00000100: 5c47 65bd fd44 9b3d 2911 5dbd d171 40be
00000110: 745d 293c df1b bbbd dd2d cabd dcfc 6dbe
00000120: 4a65 d1be e64c 6abe 3f7f a4be 5167 e2be
00000130: 89cf 28be b529 4fbe 6f76 cb3d b115 08bf
00000140: f74f 90be ecad 65bf 20b2 cebe 2651 acbe
00000150: a7f9 f6be 67be b6be e3b3 88be 6e88 39be
00000160: 1ea3 c2bd 646b 54bf a34c f7be 09e7 05bf
00000170: a639 ccbe 1e8d 61be e334 a5be ca5b 98be
-0.64597416 -0.9132842 -0.48771852 -0.60212874 -0.5638791 -0.7737397 -0.748843 -0.59301156
-0.4120008 -0.5578369 -0.4774395 -0.8748261 -0.77069914 -0.47039115 -0.49496812 -1.1627008
-0.7246916 -0.66791415 -0.7875429 -0.6241598 -0.45159626 -0.91491944 -0.3563059 -0.4785547
-0.3567823 0.16425063 0.20327221 0.08566657 -0.039734673 0.04796081 0.11741381 0.20314531
0.11119888 0.20290667 -0.37523538 0.43642202 -0.28582856 0.19396438 0.052446827 0.17879352
-0.08270156 -0.583996 -0.0057330322 0.018212007 -0.016946916 0.13242404 -0.047699936 0.36523333
0.1914425 -0.10837734 0.20080982 0.10205866 -0.06407743 0.04315257 -0.33585963 0.32967678
-0.3094922 -0.22563629 0.061532535 -0.10873463 0.25111434 0.22972108 0.18018804 0.0032485095
-0.055976257 0.07581518 -0.053971443 -0.18793418 0.010337222 -0.09136175 -0.09872029 -0.2324099
-0.4089759 -0.22880897 -0.3212833 -0.4421945 -0.16485418 -0.20230754 0.09934699 -0.531581
-0.28186008 -0.8971851 -0.40370274 -0.3365566 -0.48237345 -0.3569214 -0.26699743 -0.1811845
-0.095037684 -0.82976365 -0.48300657 -0.52305657 -0.39887732 -0.22026488 -0.32266912 -0.2975753

lstm2.bias_hh_l0 f4 [96]
00000000: 588d cfbe db00 6cbf bc74 0ebf 1917 76be
00000010: 4ea5 d1be 5101 35bf 649b 2abf c88e 1cbf
00000020: 8595 4cbe bf1c 1abf 81f2 fabe 3026 7dbf
00000030: ec3c 3fbf 9ed7 dbbe 8c65 26bf 66f9 9abf
00000040: 35ab fabe 866f 7dbf cada 2abf 8184 2cbf
00000050: e3d1 febe 82f7 8fbf 27d3 a9be 5918 e1be
00000060: 7929 97be b192 1d3e 4269 193e 285f aebd
00000070: e8b3 5bbd 7f75 b73c 88e5 493e 64b7 473e
00000080: b315 1f3e 70c2 de3d bf7c b5be f26d e83e
00000090: 6d95 1ebf c95d 353e 31d5 1cbb c854 6f3d
000000a0: 035a 153e b2e7 11bf 6431 ae3d aa91 a73d
000000b0: 5c95 53be c439 11bd 39a4 843c 9984 1a3f
000000c0: 9a17 8d3e ca7f f6bd 64ae 953e aeaf 743d
000000d0: 45fb 28be e53e f0bd 7882 483b 4bae 943e
000000e0: af8c b1be 3801 a33c dacf 653d 81a1 96bc
000000f0: 500f 3d3e e97e 9e3e 086b 423e 3c41 3ebd
00000100: 08ee c0be ae10 0d3d 32f3 9abd 82b4 8d3c
00000110: a43b 68be 2514 263c c886 56be dbd2 6fbd
00000120: edd4 f2be fe94 dcbe 0e57 38be 4522 13be
00000130: 66ac 12be 1a19 93be 2bb1 713e eee2 0abf
00000140: 60d0 8f3b f075 76bf fbbf 01bf c594 85be
00000150: a591 23bf 71e1 04bf 9b00 26be e298 9abe
00000160: 5cda 6abe d0cf 07bf e278 13bf a542 22bf
00000170: cf28 0cbe 2039 79be aeca a1be cda7 b0bd
-0.40537524 -0.92188805 -0.5564687 -0.24032249 -0.4094643 -0.70705134 -0.6664336 -0.61155367
-0.19978912 -0.60200113 -0.4901314 -0.98886395 -0.74702334 -0.4293794 -0.649987 -1.210736
-0.48958746 -0.98998296 -0.66740096 -0.67389685 -0.49769506 -1.1247408 -0.3316891 -0.43963888
-0.2952383 0.1538799 0.14981559 -0.08514243 -0.05363837 0.022394894 0.19716465 0.19503552
0.15535621 0.1087693 -0.35446736 0.45396382 -0.61946756 0.17711557 -0.0023930783 0.058430463
0.14585118 -0.56994164 0.08505514 0.0818208 -0.20662445 -0.03545548 0.016191589 0.6035858
0.2755707 -0.120360926 0.29234612 0.059737854 -0.16502102 -0.11730746 0.0030595344 0.29039225
-0.34677646 0.019898042 0.056106426 -0.018387558 0.18462873 0.309562 0.18986142 -0.04644893
-0.37681603 0.034439735 -0.07565917 0.017297987 -0.22679001 0.010136639 -0.20949852 -0.058550697
-0.47428074 -0.43082422 -0.18001959 -0.14368542 -0.14323577 -0.28730088 0.2360274 -0.5425252
0.004388854 -0.9627371 -0.50683564 -0.26090065 -0.6389411 -0.51906496 -0.16211168 -0.30194765
-0.2293486 -0.5305147 -0.5760633 -0.6338294 -0.13687442 -0.24338198 -0.31599945 -0.086257555

fc1.weight f4 [16, 24]
00000000: a5c7 0ac0 8f4d 863f a4da 6dbf 8c3b 03c0
00000010: a508 b23f 4e71 e53f 3713 12bf dc9e 49bf
00000020: 0145 233f 225c c9bf 7243 d33f babe e5bf
00000030: 2779 13bf e80a 3abf 7092 ebbf 2c86 79bf
00000040: d07b d93f 0d4d 5fbe 9eea a0bf 18c2 d53f
00000050: 8aa0 1140 1d93 8d3f 0258 ed3f f3b2 0d3f
00000060: 93ba b53e 8cf7 153f 3369 7c3e 5ab2 783e
00000070: 10fa abbe 5efb d9be 5bb1 cb3e 3b0e 5a3e
00000080: 8027 8e3d c10b d2be 308f a2be e18a 9cbe
00000090: 484f 05bf d209 333e 180b 833e d84b 12bf
000000a0: fadb 8bbe 96be 57bf 5eeb 8bbe 1452 e3be
000000b0: 1a92 dabe 8e62 163f 29d7 58be 9d93 153e
000000c0: b8c7 4bbf 1df2 a240 96ab b5bf fc18 8dbf
000000d0: efbb f63e 415b 6a3f 149d c83f 747f e3be
000000e0: a1bc 553f 2be8 10c0 2bb3 103f f178 63c0
000000f0: a6ed f8bf 4018 74bf bce2 cebe 6c54 a4c0
00000100: 31b7 c93f 5f57 d3bf 61df 0fc0 4997 4f3f
00000110: 1a69 e93e 4e96 a940 d0d7 003f 7ba1 4e3f
00000120: 0c68 66bf b4b6 9040 f1ff 2abf 4d0a 50bf
00000130: ff34 953f 2ba1 cc3e 0b25 b13f e2c8 89bf
00000140: 3b5b ae3e 7a9f dbbf e468 5a3f 2552 38c0
00000150: 9512 0cc0 34a6 9fbf 5798 18bf eb34 8cc0
00000160: 28dc 1a3f e6da d6bf 19ce dfbf df53 823f
00000170: 8cb0 303f d0b8 9840 897d 4b3f 89c0 263f
00000180: ce19 27bf 9d0b a440 f307 80bf 071b 1dbf
00000190: 4066 4f3f 6b2d 423f 8fa1 da3f 563e 80bf
000001a0: 79cd 823f af0b 1ec0 cc57 603f 02bf 66c0
000001b0: 01a5 f5bf 45a1 80bf 15cc 4fbf e84f a4c0
000001c0: f461 df3e ca39 d0bf 6287 1ec0 449e 463f
000001d0: d148 2e3f fad3 a540 ffa3 9e3f e306 1a3f
000001e0: ebca 1dc0 328a a33f 8d35 99bf a534 10c0
000001f0: 5f8a d83f 4c14 b33f b555 a13f 93ba 90bf
00000200: 5b2b 593f e6ab 4bbf 2291 0340 f4a0 af3f
00000210: 3326 4dbf c23a 7abf 2ad5 0ec0 0f46 a4bf
00000220: 4fcc fb3f 79d0 7cbf 7b24 87bf c8a8 fc3f
00000230: 6a09 2140 f269 913f e50a 0d40 9c6a 3f3f
00000240: 2838 5bc0 e975 fa3e 232c 07c0 f358 61c0
00000250: 24fe 4040 1550 bb3f 9931 4a40 ad08 08c0
00000260: bdc0 703f e7a3 2cbe b557 5340 2540 f7bf
00000270: 0739 1abe 6651 e1bf e18a 5bc0 aeb1 b0be
00000280: 0fc0 4940 f2d7 0ebf 3a4e 84c0 1125 4740
00000290: 31ea 6d40 7b78 bc3e 53bf 4e40 95fd 6f3f
000002a0: 1b39 6e3f b5c0 153f f821 f03e 7487 713f
000002b0: 89e4 40bf c0ff b9bf fbc1 ff3e 4d98 f33e
000002c0: 7d33 c7be 76e9 c9be f81e 4ebf 7ff1 a1be
000002d0: 2add 09bf 4b43 a13e e386 703f 1159 0dbf
000002e0: e84c 46bf 0361 39bf 8be1 8ebe 1efe 64bf
000002f0: cf49 89bf a8ce 143f 8056 67bf ce99 27be
00000300: a547 83bf 3333 a340 68b4 44bf 6e5c 1ebf
00000310: 9061 d63e e0d4 0f3f 7039 be3f 2507 a7bf
00000320: bfb7 513f 63c2 02c0 427e 563f 37dd 59c0
00000330: 1b67 0ec0 a7a1 72bf 2112 09bf ca6f 9fc0
00000340: 38b8 b13f 1175 c4bf 1d3f 03c0 cba2 3d3f
00000350: 1521 d63e d460 a940 a8bb 993f da4f 3b3f
00000360: 846f ce3d e1fa 383f 809e 983b 1aa4 463d
00000370: c719 943d 1732 12be b0c6 473f ddd5 6bbd
00000380: 4740 1b3f af58 43bf 3bb5 01be a18b 32bf
00000390: d3f5 a7be e7a0 b43d 0c26 24be af53 3bbf
000003a0: 5f35 923e 24bd 61bf 48c8 27bf c8b4 ff3d
000003b0: d208 6fbe 5d1f 313f 4048 ed3d cea7 fa3e
000003c0: a301 2abf a003 a640 b7c0 1dbf e291 6fbf
000003d0: b5fb 593f 6316 103f 59b1 f03f 045f a2bf
000003e0: 7b76 5e3f 5ef8 35c0 c086 503f 8765 7cc0
000003f0: 613c f3bf d5ac abbf dc72 3ebf 96b6 aac0
-2.1684353 1.0492419 -0.92911744 -2.0505095 1.3908888 1.7925203 -0.5706057 -0.78758025
0.63777167 -1.5731242 1.6504958 -1.794883 -0.5760674 -0.7267289 -1.8404064 -0.97470355
1.699091 -0.21806736 -1.25716 1.6699858 2.2754235 1.106052 1.8542483 0.5535118
0.35493907 0.5858085 0.24649505 0.24286786 -0.3358922 -0.4257459 0.3978375 0.21294491
0.06941128 -0.41024593 -0.31749868 -0.30574706 -0.520741 0.17484215 0.255944 -0.5714698
-0.27316266 -0.84275186 -0.27328008 -0.44398558 -0.42689592 0.5874413 -0.21175827 0.14607091
-0.7960162 5.092055 -1.4192989 -1.102325 0.48190257 0.9154549 1.5672936 -0.44433177
0.8349095 -2.2641704 0.5652339 -3.5542567 -1.9447525 -0.953495 -0.4040736 -5.1353054
1.575903 -1.6511039 -2.248009 0.8109022 0.45588 5.2995977 0.50329304 0.8071515
-0.9000251 4.5223026 -0.66796786 -0.8126572 1.1656798 0.3996671 1.383943 -1.076443
0.34053978 -1.7158043 0.853163 -2.8800137 -2.1886342 -1.2472596 -0.5960745 -4.3814597
0.6049218 -1.6785553 -1.7484771 1.0181845 0.6901939 4.77256 0.79488426 0.65137535
-0.6527375 5.1264176 -1.0002426 -0.61369365 0.81015396 0.7585055 1.7080554 -1.0019023
1.0218955 -2.469463 0.8763397 -3.6054082 -1.919098 -1.0049216 -0.8117078 -5.134754
0.4362942 -1.6267636 -2.477013 0.77585244 0.6807986 5.182126 1.2393798 0.6016676
-2.4655101 1.2776549 -1.1969467 -2.2532132 1.6917228 1.3990569 1.2604281 -1.1306938
0.8483178 -0.7955917 2.0557332 1.3720994 -0.8013641 -0.9774591 -2.2317605 -1.283388
1.9671725 -0.98755604 -1.0558008 1.9739008 2.5161996 1.1360457 2.20379 0.7477205
-3.4253025 0.48918083 -2.112069 -3.521054 3.0155115 1.4633814 3.1592772 -2.1255295
0.94044095 -0.16859399 3.3022282 -1.931645 -0.15060817 -1.7602966 -3.4303515 -0.3451056
3.1523473 -0.55798256 -4.134549 3.1116374 3.717419 0.3681067 3.2304275 0.9374631
0.93055886 0.5849717 0.46900916 0.9434731 -0.75348717 -1.4531174 0.49952683 0.47577134
-0.3890647 -0.3943593 -0.80516005 -0.3162956 -0.53853095 0.31496653 0.9395582 -0.5521403
-0.774611 -0.72413653 -0.2790645 -0.8945025 -1.072565 0.5812783 -0.90366364 -0.16367266
-1.0256239 5.1 -0.7683778 -0.61859787 0.4187131 0.56184196 1.4861279 -1.3049055
0.81921 -2.0431144 0.83786404 -3.404127 -2.225043 -0.9477791 -0.5354329 -4.982396
1.3884344 -1.5348226 -2.0507271 0.7407653 0.41822115 5.29307 1.2010393 0.7316872
0.10079864 0.7225781 0.0046575665 0.048496343 0.07231479 -0.1427692 0.7803755 -0.057577003
0.60644954 -0.76307195 -0.1266679 -0.69744307 -0.32804736 0.08819752 -0.16030139 -0.73174566
0.28556344 -0.8817923 -0.6553998 0.12485653 -0.23343208 0.6918848 0.11586046 0.4895615
-0.6640875 5.1879425 -0.61622185 -0.93581975 0.851497 0.5628416 1.8804122 -1.2685246
0.86899537 -2.8432841 0.8145561 -3.9436967 -1.9002801 -1.3412119 -0.7439401 -5.3347883

fc1.bias f4 [16]
00000000: 6a4e 8bbf eb2e 72be 5225 d8bf 1340 afbf
00000010: 4aef ccbf 252c 8fbf 3a46 eabf 4169 12bb
00000020: 4112 bfbf a382 c9be 5cbb e3bf cadb acbf
00000030: 8038 b4bf ab60 52be 33ce 0dc0 1842 74bf
-1.0883305 -0.2365071 -1.6886389 -1.3691429 -1.6010525 -1.1185347 -1.8302681 -0.0022340568
-1.4927446 -0.3935748 -1.7791553 -1.3504574 -1.4079742 -0.20544688 -2.2157104 -0.9541335

fc2.weight f4 [1, 16]
00000000: 79b1 96be db94 623e ccf0 063e c622 513e
00000010: 3003 9e3d 61cd 87be ac52 30bf a880 bf3e
00000020: 64d0 343e 8807 a13d ccf9 583d 8f40 4a3e
00000030: 3d8e 0e3e f0f8 503e 0507 5d3e b7a2 06bf
-0.29432276 0.22127096 0.13177794 0.20423421 0.07715452 -0.2652388 -0.6887615 0.37402844
0.1765762 0.078627646 0.0529726 0.1975119 0.13921447 0.20407462 0.21584709 -0.52592033
